app/src/main/ml/model.tflite (tflite, 149220 bytes, 10 tensors)

sequential/conv2d/Relu;sequential/conv2d/BiasAdd;sequential/conv2d_2/Conv2D;sequential/conv2d/Conv2D;sequential/conv2d/BiasAdd/ReadVariableOp f4 [32, 3, 3, 3]
00000000: c650 de39 359f 1dba c40f c7b9 0e34 7f39
00000010: c256 f1b8 3845 56b9 8a48 ed39 d0b4 a539
00000020: 09de f339 4017 9239 fc86 fdb8 6233 bcb9
00000030: 33b7 98b7 225f acb9 7146 2038 2771 c539
00000040: a2b8 3339 d786 c439 5bb4 17b9 e0fe 17ba
00000050: f98f 10ba 2cef 44b9 02d1 7239 05a2 9439
00000060: 9e05 36b9 e9ad c9b9 c79f e939 bd61 70b9
00000070: e6fd 0339 79a0 82b9 8cf0 0aba 050c 3539
00000080: 0362 9338 2807 6738 10f7 2f39 e89b 0039
00000090: 8f2e b0b9 0c5b 3bb9 c193 6639 1edd e638
000000a0: 0e4d c5b9 bfda a4b8 054c 9838 1160 4fb9
000000b0: 41b1 f8b9 0c5b 45b9 37d6 2038 162b e3b9
000000c0: 6a11 c338 991c b0b9 9e29 2539 39b0 d2b8
000000d0: 86b1 d6b8 b851 d2b9 7c20 d539 3e7e d439
000000e0: f241 81b9 757c d9b8 a056 fe38 2fcc 77b9
000000f0: e6e6 0eba 767b d0b9 d3a8 d8b9 54d8 9db9
00000100: bde0 99b9 b904 0cba a27f 0cba 0c38 c839
00000110: 8ba7 46b9 4a56 8fb9 fc19 25b9 1e32 9d39
00000120: 3eeb a739 9559 0a39 3c8d a138 e097 08b9
00000130: 91fd 7f39 edbb 00ba 88eb 9ab8 2b11 12ba
00000140: 78c5 8fb9 3d56 153a 63ce f7b9 81c5 7839
00000150: 3258 3739 cf7b 37b9 5ba7 55b9 3638 9ab9
00000160: 02b9 24b9 e281 7d37 54ec d438 c0d1 f8b9
00000170: 815d f539 81dd 133a cbd5 05ba 89dc 3fb9
00000180: 9556 ddb9 c7d8 2438 d381 083a 469d 21b9
00000190: 6ded ae38 5726 1dba 4bda c4b8 0b55 7bb8
000001a0: 7ca2 f8b9 dc88 5c39 61b9 66b9 8317 6539
000001b0: 9736 4139 b0a2 0cba 16ac 25b9 3cfb 0cb9
000001c0: 3047 f5b9 924b 083a 3e08 cbb9 9087 2b39
000001d0: b1d8 aa39 0a44 cbb9 18a7 1939 f8d8 d339
000001e0: 0bc1 33b9 7a11 bf39 6652 11b9 b1d5 c8b8
000001f0: 7c26 0e39 fb94 25b9 13d1 32b9 3489 4339
00000200: 03a2 4ab9 ed91 e639 290e 8a39 b6ca 9e39
00000210: 3f6d eeb9 00f3 1cba 96e9 9fb9 689d 14ba
00000220: 88fe 163a fc7c 53b9 bbf4 a639 ecd3 9639
00000230: c10a ccb9 144f 6238 e10c 2e39 4cc8 5cb9
00000240: c19d 64b9 07c1 d4b8 1f1e afb9 a120 6d39
00000250: 0319 d039 feb7 2fb9 4173 8b39 6247 ae39
00000260: 3bef f239 dcc4 b6b9 a121 9938 f498 0bba
00000270: fa55 9db8 fe37 90b8 013a 3fb9 18fe 3339
00000280: 26ef 8239 0da8 22b7 7fa7 b7b9 257a 033a
00000290: 9f7b a6b9 52a4 ceb9 caba 58b7 57eb 28b9
000002a0: 5b1c ac38 9dfc 8db9 b101 1fb9 108c 3bb9
000002b0: 5722 1137 975f 5e39 4699 f039 adfe 083a
000002c0: 2deb 11ba 98ea 9839 809c 4139 740d 11ba
000002d0: 3ae7 2837 8741 193a d7f4 1aba 4c72 cd39
000002e0: 2121 eb39 8b07 60b8 8d29 d1b9 91fc 2137
000002f0: e8f3 5f38 08cb edb9 dfea 04b8 7383 0739
00000300: 7ab8 6f39 6b60 f739 1bd0 4e39 a09d 86b9
00000310: 812a d6b8 f5a9 f538 71c0 5e39 1ee1 ec39
00000320: 8519 a738 9519 06ba 8574 dc39 79ab 10ba
00000330: e145 83b9 04db c6b9 d3bd 36b8 858b 5a37
00000340: f8e4 1a3a 0472 b238 e124 b9b8 71d8 6ab9
00000350: 3960 5fb9 6830 01ba 0261 dbb9 477e 3b39
00000360: 9eac e7b8 29ea abb9 8dce 8639 11c2 243a
00000370: afb2 da39 8478 8ab9 9a16 cfb8 519e c6b9
00000380: 180d b4b9 bf5f fd39 21c9 d0b8 28f8 1cba
00000390: fb82 6d39 927b 9139 36b7 8b39 d3cf 6239
000003a0: 648c 80b9 734e a2b9 d8f2 d139 b858 12ba
000003b0: 74fd e9b9 fd84 a739 cb56 0fba 1d5b 04b9
000003c0: 424b 243a 26da a9b9 1f77 03ba 9340 4eb8
000003d0: eb1b 5b39 36d3 0a3a b247 c8b9 9209 9939
000003e0: b45a 1739 c140 5e39 fed8 94b9 802e 7f39
000003f0: 5049 8637 ef21 7cb9 1c1c 66b9 35f8 b939
0.0004240332 -0.00060127984 -0.00037967984 0.00024338087 -0.000115079354 -0.00020434416 0.00045258208 0.00031605968
0.00046514 0.00027864613 -0.00012089123 -0.00035896437 -1.820512e-05 -0.00032877276 3.8212576e-05 0.00037659073
0.00017139551 0.00037484497 -0.0001446767 -0.0005798172 -0.00055146177 -0.00018781115 0.0002315678 0.00028349474
-0.00017358965 -0.0003846728 0.00044560267 -0.00022924594 0.00012587718 -0.00024915094 -0.00053001265 0.00017265983
7.027762e-05 5.5081357e-05 0.00016781338 0.00012265111 -0.00033604025 -0.00017867627 0.00021989552 0.00011008441
-0.00037632178 -7.860874e-05 7.2620845e-05 -0.00019776846 -0.0004743431 -0.00018821302 3.8346476e-05 -0.00043328915
9.301568e-05 -0.00033590643 0.0001575113 -0.00010046404 -0.000102373815 -0.00040115207 0.0004065073 0.0004052985
-0.0002465393 -0.00010370548 0.00012127799 -0.0002363182 -0.00054512767 -0.00039764837 -0.00041324514 -0.0003010655
-0.00029349877 -0.000534128 -0.0005359595 0.0003818873 -0.00018945166 -0.00027339376 -0.00015745306 0.00029982714
0.0003202799 0.00013194077 7.703385e-05 -0.00013026549 0.00024413156 -0.00049108156 -7.387163e-05 -0.0005572016
-0.0002742221 0.00056967494 -0.0004726528 0.00023724699 0.00017485095 -0.00017498362 -0.00020375608 -0.0002941505
-0.0001570918 1.5110216e-05 0.00010152967 -0.00047458522 0.00046799707 0.00056406116 -0.0005105405 -0.00018297335
-0.00042216913 3.9302537e-05 0.00052073336 -0.00015412745 8.3411906e-05 -0.0005994788 -9.3866685e-05 -5.9922266e-05
-0.00047423306 0.00021031819 -0.00022003568 0.000218479 0.0001842625 -0.00053648185 -0.00015799733 -0.00013445033
-0.0004678308 0.0005199249 -0.00038725318 0.00016358332 0.00032586374 -0.0003876987 0.00014653464 0.0004040671
-0.00017142684 0.0003644338 -0.00013858973 -9.576546e-05 0.00013556512 -0.00015791126 -0.00017053289 0.00018647761
-0.00019324575 0.00043977742 0.0002633196 0.0003028714 -0.00045476292 -0.00059871376 -0.00030500878 -0.00056692073
0.0005759974 -0.00020169088 0.00031844326 0.00028768124 -0.00038917924 5.3956246e-05 0.00016598731 -0.00021055451
-0.00021802542 -0.00010144902 -0.00033401043 0.00022614237 0.00039691487 -0.00016757843 0.00026598017 0.0003324105
0.00046336078 -0.00034860417 7.3018724e-05 -0.0005325221 -7.502358e-05 -6.8768844e-05 -0.00018236788 0.00017165428
0.00024973712 -9.69508e-06 -0.00035029274 0.00050154544 -0.00031754092 -0.0003941381 -1.29180935e-05 -0.000161094
8.206881e-05 -0.00027081827 -0.00015164052 -0.00017885887 8.650669e-06 0.0002120718 0.00045890565 0.0005225938
-0.0005566355 0.00029166485 0.00018464215 -0.00055333157 1.0067417e-05 0.0005846251 -0.0005911118 0.00039185805
0.00044847376 -5.3412787e-05 -0.00039894544 9.655153e-06 5.33945e-05 -0.00045355433 -3.1689993e-05 0.00012923572
0.00022861539 0.00047183348 0.00019723216 -0.00025675911 -0.00010212232 0.00011714167 0.0002124326 0.00045181153
7.967934e-05 -0.00051155064 0.00042048484 -0.00055187155 -0.0002503833 -0.00037928682 -4.356897e-05 1.3026297e-05
0.0005908753 8.5089385e-05 -8.828357e-05 -0.0002239661 -0.00021302783 -0.00049281726 -0.00041843212 0.00017880752
-0.00011047091 -0.00032790125 0.00025712364 0.00062850217 0.0004171333 -0.00026411202 -9.874739e-05 -0.00037883458
-0.0003434203 0.00048327257 -9.955676e-05 -0.0005987906 0.00022650875 0.00027748622 0.0002664865 0.0002163046
-0.00024518662 -0.00030957497 0.0004004452 -0.0005582678 -0.0004463006 0.00031951806 -0.000546795 -0.00012622443
0.0006267318 -0.00032396725 -0.0005015004 -4.9174367e-05 0.00020895868 0.0005295755 -0.0003820039 0.00029189565
0.00014434272 0.00021195693 -0.00028390432 0.00024336018 1.6008184e-05 -0.00024045234 -0.00021944981 0.00035470878

sequential/conv2d/BiasAdd/ReadVariableOp f4 [32]
00000000: 9add f13c 0000 0000 4e7d e0bb fc6e d53c
00000010: 93d8 90bb 8c0d bbbc 0254 08bc 7f9c 263c
00000020: 28a7 eb3c c26c 95bc 9bf1 8abc 65a3 bcbc
00000030: 3954 c63b 55b9 a43c 0000 0000 832e 55bb
00000040: a197 ffbc d18f a03b 3472 b93c 187b dcbc
00000050: 0d39 0dbc 223c 393d 3b3f c73c ea5c a53c
00000060: 8287 263a 58f1 a3bc 2ff2 1e3c 5560 f23c
00000070: 139c 9f3c 7818 aebc 2b64 d7bc 617d dbbc
0.029524613 0.0 -0.006850875 0.026053898 -0.004420349 -0.022833608 -0.00832081 0.0101691475
0.02876623 -0.018240336 -0.01696091 -0.023027131 0.0060525206 0.020107904 0.0 -0.0032528944
-0.031200232 0.0048999568 0.022637464 -0.026914164 -0.008619559 0.045223363 0.024322143 0.020185906
0.00063525897 -0.020012543 0.009701296 0.02958695 0.019483602 -0.021251902 -0.026292881 -0.026793184

sequential/conv2d_1/BiasAdd/ReadVariableOp f4 [32]
00000000: 03c2 e0bb 9b80 99ba 0818 e73b f4b4 b53c
00000010: a210 eb3c b15a 96bc b983 3bbc 0000 0000
00000020: 1e5e f13b 0c75 3f3c 22b9 bbbb 2a6e 77bb
00000030: 65fb 47bb fbb6 df3c 5d42 163c 316c 6cbc
00000040: 0dcf 5b3b 0000 0000 2e53 48ba dca6 bfbb
00000050: e1d2 893c b364 643c 0b89 c83c 0000 0000
00000060: 4b30 1dba 5771 07bc a186 893c b110 06ba
00000070: 6157 383c 5bdb 613c e26b 493c b8cc 26bc
-0.0068590655 -0.0011711301 0.0070524253 0.022181012 0.028694455 -0.018353792 -0.011444979 0.0
0.007365956 0.011685621 -0.0057288567 -0.0037754872 -0.0030514833 0.027308932 0.009171096 -0.014430092
0.003354016 0.0 -0.0007641789 -0.0058487486 0.016824188 0.013940024 0.02447941 0.0
-0.0005996271 -0.008266768 0.016787829 -0.00051141815 0.0112513015 0.013785209 0.012293788 -0.010180645

sequential/conv2d_2/BiasAdd/ReadVariableOp f4 [32]
00000000: 4533 943c 1bfd 0e3b ab07 18ba cac1 36bc
00000010: 3aca d33b c401 3b3c 548d 8e3a 8c4c 813b
00000020: 8a27 07bc c288 7e3c 0000 0000 9beb a63c
00000030: c2cb a73c 92fe acbb 8988 a33c d79d 09bc
00000040: 89e5 23bb 776d 6ebb e114 b6bb dda5 cc3b
00000050: 7611 233b 74d7 b9bb 69f9 913b 33e8 a9bb
00000060: 83b5 c2bb d337 92bb 525d acbb 54e3 923c
00000070: 4a4c 5cb9 ca16 143c 0000 0000 fe37 723c
0.018090853 0.0021818343 -0.00057994825 -0.011154601 0.0064633163 0.011413995 0.0010875859 0.0039458927
-0.008249173 0.015535535 0.0 0.020376017 0.020482901 -0.0052793706 0.019962566 -0.008399448
-0.002500864 -0.0036381164 -0.005556688 0.0062453584 0.0024882234 -0.005671436 0.004454781 -0.005185151
-0.005942048 -0.004462221 -0.005260148 0.017930664 -0.00021009255 0.009038636 0.0 0.014783857

sequential/conv2d_1/Conv2D f4 [32, 3, 3, 32]
00000000: c3fd ddbd 30c4 f6bc 6093 483b 6a4a efbc
00000010: c889 923c 53a9 b0bd 93c4 703d b7e8 2f3d
00000020: 43b0 44bd 2ee6 a33d 5cf5 bebb e23b 4a3d
00000030: 6d9a 74bd 199d 353d 0496 4f3d f4ca bdbc
00000040: a866 c4bd c1f9 8dbd 5936 263c e289 813c
00000050: ace3 f1bc a031 b53d 02ee d3bd 3f46 9fbd
00000060: b5d2 05bd 2e91 8cbd cdd8 4dbd 5f01 c23d
00000070: 44e0 20bd 46c3 853c bdbf a43d 2419 6d3c
00000080: 86e6 f7bc f6f3 3dbd c490 16bd e541 7bbd
00000090: 90aa 43bd 562e 3cbd 0001 113b 60ef 5a3c
000000a0: 4132 c6bd e153 a53d 7004 583d f820 69bd
000000b0: aebc c73d dcb6 c8bd 3c80 283d 5f67 7cbd
000000c0: b83b 373d 2ec7 59bc 9116 88bd 6900 6c3d
000000d0: 1cff a3bd 719b 49bd e437 42bd bec4 5ebd
000000e0: 1410 d1bd 10f0 aebd a127 6fbc b313 cfbd
000000f0: 7876 9bbd abcb 7abd 9def 18bc 9685 2dbd
00000100: 2477 a03d 2b6e b9bd 3238 923d 3886 98bd
00000110: 544c bcbc eed9 abbd 11d4 92bd 90d7 333d
00000120: e13b e93c d60d 25bd b2c0 a3bd 4b33 32bd
00000130: 942d bd3d 9f83 18bc 0805 883d 83bd 46bd
00000140: 1456 1c3d 1810 cdbd 347e b53c f587 7cbd
00000150: d00a e6bb 7e67 4fbd b6ac bb3d f4fc 153d
00000160: 3d1c 623c 90d5 b3bd fb80 ba3b 79a1 81bc
00000170: 98a0 1cbd 3634 333d 2975 c3bd fd1c 04bc
00000180: 45c9 40bd 6c14 a13d dae8 a0bd f3b3 c03d
00000190: 60f2 2e3d d2e6 7fbd a9ac 923d 56da 98bb
000001a0: bbef 33bc 5f90 d8bd b293 92bd b681 97bd
000001b0: d429 323d eceb 9bbd f41a 593d 90ed a0bd
000001c0: b0dc 353d ea44 54bd 1465 403d 2873 233d
000001d0: 2327 bcbd 7bd6 b33d 5896 dbbd 9215 9dbd
000001e0: 9e45 b93d 7fad b43d 3a7a 85bd 5c17 99bc
000001f0: 6034 02bd bd78 a9bc dc2f cfbd 87ee 99bd
00000200: f436 e93c e8f7 a0bd a022 3c3b 2cbb 8f3c
00000210: f493 463d 2b85 833d 2a70 b23d 7ce8 c03d
00000220: 29d4 693c ac85 8fbc 1fb6 91bd e117 33bd
00000230: ae90 34bd 084d 083d 5055 43bd e8a4 753d
00000240: dcea dcbd 3e82 3f3d 983f aebd 4880 2ebd
00000250: db49 a9bd f0b8 b63b 42b7 813c 308d 133c
00000260: 9854 93bc d7e3 333d b258 ad3d 5dcd 093a
00000270: 23ed 2fbd 7c51 d1bd 7aff 363d 482a 0b3b
00000280: e41a 5cbb 2ecd a0bd 0037 d53c cc34 503d
00000290: 90db cd3c 71e9 8bbd f24b 50bd b67d 9cbd
000002a0: 8cb5 a43d 529a 2ebd cb2d aabd a896 4cbc
000002b0: 0055 1cbc f1c0 ccbd d0e2 62bc 1826 bebc
000002c0: 7ceb 96bd a35b 0a3c ef2b 9bbc 5ef2 0fbd
000002d0: a8f4 c23c 128f 133c a898 273d 08b9 dc3c
000002e0: c827 623d 44a7 a4bd 4ce1 70bc 9011 8c3d
000002f0: 7456 c6bc 669c 5d3c a32a 4d3d d711 9f3d
00000300: 47ce 8b3d a8ee 25bc c0eb 163d a6e1 413d
00000310: b0a7 d73c 253e cfbc 02dd 7abd 0000 95b7
00000320: ccb1 71bc de87 aa3d 0ebf d6bd e442 99bd
00000330: 70f0 9ebd 857a c03c 3882 b3bc b6b1 ab3d
00000340: a764 863d 35db be3d e870 533d 8fbb c4bd
00000350: e24a c6bd c6f7 4c3d cc7c a03d 4599 aa3d
00000360: b17b b53d dfa4 5a3d 5933 c03d a762 8f3c
00000370: 98ae e43c 0738 6e3d 7079 5b3d 3e87 8bbd
00000380: bc13 423d 28a3 b43d bcbd cdbd c8fd 5e3c
00000390: a431 aa3c 3fc2 82bc 80d0 47bd 6d6e 38bd
000003a0: 5261 2abd c76d 94bc d907 afbd 54fd b0bd
000003b0: 58d2 793c 9913 1b3c 232e 47bd 1645 993d
000003c0: 4ef9 53bd 164b 073c e444 46bd a02f e3bc
000003d0: 9c15 853d acfd bcbd e893 e43b bcd6 233d
000003e0: af25 e63b f2ae 643d ee64 003d a9e7 e7bc
000003f0: c0f4 f03a d28c acbd 0a34 8cbd 9552 73bd
-0.10839417 -0.030122846 0.003060542 -0.029210288 0.017887965 -0.08626046 0.058781218 0.042946544
-0.04801966 0.08002888 -0.005827589 0.049373515 -0.059717584 0.044339273 0.050680175 -0.023168065
-0.095898926 -0.069324024 0.010144793 0.015812818 -0.029527508 0.08847356 -0.10348131 -0.0777707
-0.03267165 -0.06863628 -0.050255585 0.09472918 -0.039276376 0.016328465 0.08044384 0.014471326
-0.03026129 -0.046375237 -0.036759153 -0.06134214 -0.047770083 -0.045942627 0.002212584 0.0133627355
-0.09677554 0.08072639 0.052738607 -0.056916207 0.09752785 -0.09800503 0.04113792 -0.06162202
0.044734687 -0.013292117 -0.06644929 0.05761758 -0.080076426 -0.049220506 -0.047416583 -0.054386847
-0.10208145 -0.08541882 -0.014596851 -0.10111179 -0.075909555 -0.06122939 -0.009334472 -0.042363726
0.07835224 -0.09054216 0.07139625 -0.07447475 -0.022985615 -0.08391176 -0.07169355 0.04390675
0.028470935 -0.040296398 -0.07995738 -0.043505948 0.09237209 -0.009308725 0.06641585 -0.048520576
0.038168028 -0.10012835 0.022154905 -0.061653096 -0.007020332 -0.050635807 0.09163801 0.036618188
0.013800678 -0.08780968 0.005691645 -0.015824066 -0.03823909 0.043750964 -0.09543831 -0.008063552
-0.047066946 0.07865223 -0.07856913 0.094093226 0.042711616 -0.062475987 0.071618386 -0.0046646995
-0.010982449 -0.105744116 -0.07157077 -0.07397787 0.04349692 -0.07613358 0.05300422 -0.078578115
0.044399917 -0.051823534 0.046971396 0.039904743 -0.09187152 0.08781143 -0.10722035 -0.0767013
0.090464815 0.08822154 -0.065174535 -0.018687896 -0.03178823 -0.020687455 -0.1011655 -0.075161986
0.028468587 -0.07859784 0.0028707162 0.017545305 0.048480943 0.06421884 0.087128 0.09419343
0.014271774 -0.017519794 -0.07114815 -0.043723945 -0.04408329 0.033276588 -0.047688782 0.05997172
-0.10786983 0.046755068 -0.08508223 -0.042602807 -0.0826604 0.0055762455 0.015834454 0.00900583
-0.017984673 0.043918457 0.08464183 0.0005256737 -0.04295076 -0.1022062 0.044677235 0.0021234918
-0.0033585364 -0.07851635 0.026027203 0.0508316 0.02512911 -0.06831635 -0.050853677 -0.07641165
0.0804244 -0.04262764 -0.083095156 -0.012487091 -0.00954175 -0.09997738 -0.013848022 -0.023211524
-0.07369134 0.008444699 -0.018941848 -0.03514325 0.023798302 0.009006279 0.04091707 0.026943699
0.05521372 -0.08039716 -0.014702152 0.06839287 -0.024211146 0.013526058 0.05008949 0.077670746
0.06826454 -0.010127701 0.036845922 0.047334336 0.026325077 -0.025298188 -0.061245926 -1.7762184e-05
-0.014751863 0.08326696 -0.104856595 -0.074834615 -0.077607036 0.023495922 -0.02191268 0.08383505
0.06562167 0.09319154 0.051621348 -0.096060865 -0.096822515 0.050040983 0.07836303 0.08330015
0.08861483 0.05337989 0.09384794 0.017503096 0.027915284 0.0581589 0.05358261 -0.06812905
0.0473821 0.08820182 -0.100459546 0.013610311 0.020775624 -0.015961764 -0.048782825 -0.045027185
-0.041596718 -0.018118752 -0.08546419 -0.086420685 0.015247904 0.009465122 -0.048627984 0.0748388
-0.051751427 0.008257648 -0.048405543 -0.02773267 0.06498262 -0.092280716 0.0069756396 0.03999971
0.007023535 0.055830903 0.031346254 -0.028308706 0.0018383488 -0.08425297 -0.06845863 -0.05940493

sequential/conv2d_2/Conv2D f4 [32, 3, 3, 32]
00000000: 1155 8abd 633e e2bc 71a4 95bd 4fa2 fb3d
00000010: df68 da3d dea6 263d 669f 6fbd 83a6 c0bd
00000020: cde8 2f3d b4ef 373d aa88 f83b 030f 2a3d
00000030: 79f2 96bc eae7 56bd 0a34 c5bb cfc6 39bd
00000040: f897 a1ba f3c2 7bbd b274 19bd 8369 df3d
00000050: 13ec a0bc 6c28 7a3d 1240 13bc 8c35 853c
00000060: e262 d93d 1789 82bd 4db7 02bd d2fd 39bd
00000070: 31c0 e6bc 1214 093c 9b18 2e3d cdc7 77bc
00000080: fc7c a0bd 2cdf c9bd d4c6 073c 2eee 153e
00000090: 6da9 a13d e55f 433d a6bf 473d 5856 b7bd
000000a0: 2d4f 9dbc 4536 e63d 2202 5c3c e52e a13d
000000b0: f946 16bd 498e a03d 94a9 dbbc df39 b0bd
000000c0: bc41 a9bd 84ad 81bd 85c4 cd3d d539 a5bd
000000d0: 58cd 753d 664a 1bbd dcdc 82bc e0ac a83c
000000e0: 2a92 e53d b17f a3bc 6075 ea3d e6ff 553d
000000f0: ca09 983d b318 bc3d d80d c83d 6d84 7ebd
00000100: f091 843c fdb8 ca3d 53f6 003e fb84 5c3d
00000110: 52c7 22bc a23c 5dbd 4665 093c f3c0 9bbd
00000120: d396 ab3d d4ac c03d cbc9 93bc b1cf adbd
00000130: 3826 ac3d 6d39 153e 7bfb 5a3d 1466 baba
00000140: 4db2 953d e8a8 1b3c 6714 493d 7f00 02bd
00000150: 5965 773c cab1 fabc 1c7b c63d a8b4 4a3c
00000160: 9b4f 9f3c c6e3 87bd 6428 e73d dbd2 f0bc
00000170: 3bd6 a23c a30f 663d f9bb c03d 2fc3 913d
00000180: 6422 64bd 4cc5 b4bd 5cee 863d dd4a 083e
00000190: 9850 a43b 6b55 55bd 7dc3 5e3d 42fd bd3d
000001a0: 25e4 903c 024a 47ba 94ad 9bbd e91a c13d
000001b0: 8547 59bd 601e 103e 2da6 75bd 23cf 1fbd
000001c0: 264a 3bbd 441c 533d a108 a6bd 8570 4a3d
000001d0: 3a2c 7bbd 581c c83d 0796 823d 5092 0e3c
000001e0: 13e8 aebd e97d 743d 1459 e03d f9d6 febb
000001f0: 6ca4 7e3d fd4c aebd bb6d a1bd 64aa 54bd
00000200: 1009 b0bd 84ca 9abd c717 3bbd be4e 073e
00000210: ba76 ba3d f763 f23c 0783 0b3d eed8 2ebd
00000220: 74b6 373c 4fe5 bc3c 867b 463d 4ee0 933d
00000230: e900 4d3d 841a 31bd 743f c2bd 672b ee3c
00000240: ea47 2f3d 7001 1ebc d3af bcbd 2a6e 9cbd
00000250: ab13 13bd 382d d03c 45ed b13d 4086 cfba
00000260: b7e5 3abd b0fc 11bd 3695 0d3e 5ccd c8bc
00000270: 2af4 d63d 13a8 643d 351a bb3d 9829 71bd
00000280: 93ce 37b9 80ca 833d 53b0 a73d 5f01 fc39
00000290: 5820 1a3e a0b0 403b 6655 9bbd 3423 ba3d
000002a0: 76b0 bf3d 3a28 1ebd 979d 0dbd fcfd 1cbd
000002b0: 0718 aa3d e0a8 fd3d 503e b83d ad04 823d
000002c0: c56d 173b 269a aa3d f5fe 283d fe7e a8bd
000002d0: c43c 51bd e92a 25bd 2a7d c6bb 28b6 23bc
000002e0: 1fbf 96bd fd48 253d fa52 543c eb23 653d
000002f0: 4b50 e8bb e7c6 9ebd e318 91bd eef7 82bd
00000300: cf1b 86bd 2477 9bbc 611f 3cbd f8dc c33d
00000310: cf86 cd3d 697e 8fbb d002 96bc 6740 a4bd
00000320: 860f 00be c434 8e3d 5569 b03d 5509 b03c
00000330: fa75 203d e64e d53d 66c9 5fbb 186a 803b
00000340: 9b6d 5a3c 58b1 97bd 696e 563d 1d9f abbd
00000350: 8166 6e3c f8a2 39bd 4104 b03d 205f 11bd
00000360: f056 a73d 8566 05bd 5075 053e 2766 11bc
00000370: 2fa3 853c 6364 87bd b70a 433d c860 07bd
00000380: d983 73bd 8e68 2e3d f398 30bd 8651 9e3d
00000390: ac05 243e a78b f2bd 2e8e 5d3c a439 883c
000003a0: 3712 1c3d 020f 3ebc 2287 443d 72ec f4bc
000003b0: ceb7 dbbc c23c 763d bfbc 1b3d e800 933d
000003c0: d093 993d c0f4 22bd 306f 8cbd 39b7 43bd
000003d0: a834 c73d 3813 523d ab5c 953d 71ee 65bd
000003e0: c55f 923d 18ab 923d d629 2a3d f3f7 c63d
000003f0: 0533 c3bc b5b0 82bc 67ee 1c3d 8521 88bd
-0.067545064 -0.027617639 -0.07306755 0.12286817 0.10664534 0.04068648 -0.058501624 -0.094067596
0.042946626 0.044906333 0.007584651 0.041518223 -0.018426167 -0.052467264 -0.0060181664 -0.045355614
-0.0012328615 -0.061465215 -0.037464805 0.10908797 -0.019643819 0.061073706 -0.0089874435 0.016260885
0.106145635 -0.06373804 -0.03191309 -0.045408078 -0.028167816 0.008366602 0.042503934 -0.01512332
-0.07836339 -0.0985702 0.00828715 0.1464164 0.078936435 0.047698874 0.048766755 -0.08952016
-0.019202793 0.1124082 0.013428243 0.078702725 -0.03668878 0.07839639 -0.02681426 -0.08604788
-0.08264491 -0.063319236 0.10047249 -0.08067671 0.060010284 -0.03791275 -0.015974455 0.020590246
0.11209519 -0.019958349 0.11448169 0.052245997 0.07423742 0.091843985 0.097682655 -0.06213801
0.01618287 0.09898565 0.12593965 0.053837758 -0.009935217 -0.054012902 0.008385962 -0.076051615
0.08378377 0.09407964 -0.018040558 -0.084868796 0.08405727 0.14572687 0.053462487 -0.0014221095
0.07309399 0.00950072 0.049091723 -0.031738754 0.015099847 -0.030602355 0.0969145 0.012372173
0.019447139 -0.06635241 0.11287001 -0.029397419 0.019877544 0.056167256 0.09410853 0.071173064
-0.05569686 -0.08826694 0.06588432 0.13309808 0.0050144903 -0.052083414 0.05438565 0.09276821
0.017686913 -0.00076022756 -0.07601467 0.09428961 -0.053046722 0.14074087 -0.05997293 -0.0390159
-0.04572501 0.051540628 -0.081071146 0.049423713 -0.061321475 0.09771031 0.06376272 0.008701876
-0.085403584 0.05969039 0.1095449 -0.0077770916 0.062168524 -0.08510778 -0.078822576 -0.05192031
-0.085954785 -0.07558158 -0.045676973 0.13213632 0.091046765 0.029588683 0.034060504 -0.04268735
0.011212934 0.023058562 0.048457645 0.07220517 0.050049696 -0.043238178 -0.09484759 0.02907343
0.042793192 -0.009643897 -0.09213223 -0.076381996 -0.03590743 0.025412187 0.08687834 -0.0015832856
-0.04562923 -0.035641372 0.1382645 -0.024511985 0.10495789 0.05582435 0.09135858 -0.058877558
-0.00017529195 0.06435108 0.08187928 0.00048066207 0.150514 0.0029402152 -0.07584648 0.09088746
0.09359829 -0.03861258 -0.034574118 -0.038328156 0.08305364 0.12385726 0.0899626 0.06348548
0.00231062 0.08330183 0.04125877 -0.08227347 -0.05108334 -0.040324125 -0.006057401 -0.00999216
-0.07360672 0.04035281 0.012959236 0.055942457 -0.00708965 -0.07752781 -0.07084825 -0.06394945
-0.06548273 -0.01897771 -0.045928363 0.09563631 0.10035478 -0.004379083 -0.018311888 -0.08020096
-0.12505922 0.06943658 0.086138405 0.021488825 0.03917501 0.10415439 -0.0034147142 0.0039188974
0.013331796 -0.074068725 0.05235139 -0.08379958 0.014550806 -0.045321435 0.08594561 -0.03549111
0.08170879 -0.032568473 0.13033032 -0.008874453 0.016313164 -0.06610944 0.04761764 -0.033051282
-0.05945191 0.04258018 -0.043114614 0.07730393 0.16017789 -0.11843043 0.013522668 0.016629048
0.03810331 -0.011600258 0.047980435 -0.029897902 -0.026821043 0.060116537 0.0380218 0.07177907
0.07498896 -0.039784193 -0.06857145 -0.047782157 0.0972684 0.05128786 0.07293066 -0.0561356
0.07147173 0.0716154 0.041543804 0.09715261 -0.023828039 -0.015953401 0.038313296 -0.06647018

sequential/dense/BiasAdd/ReadVariableOp f4 [128]
00000000: 0000 0000 d447 ce3a e0ad b5bb 9445 1abc
00000010: 050d 7c3c 8a0c 2dbb 8ac7 5b3c 0000 0000
00000020: 1e97 4e3b 9e2a 94bb 41a2 e7ba 5eef a63b
00000030: 4a4f 05bc 6d89 cebb 1032 763b f34d 933c
00000040: 95b8 19bb 0906 6f3c edc1 0f3b 20bf 6d3b
00000050: c41d f63b 0000 0000 4a64 1e3c eeb7 f53b
00000060: 9676 bc3b 6b71 0abc 325e 03bc b2e8 283b
00000070: 1a14 cbba e25e 8dbc c815 bb3b 703f 95bb
00000080: 0000 0000 45fe deba d975 303c 3a8a 9f3c
00000090: 54a2 17ba 1f9e 2f3c dc02 afbb a3bc ecbb
000000a0: 5af3 18bb cec8 c3ba c462 61bc a855 9b3b
000000b0: 111e 42bb d91a 41bc 26f2 f2bb a195 c9bb
000000c0: 500a ab3c 17f1 573c 25a4 17bc d06f 203c
000000d0: 53c2 813b 3715 8ebc dc35 213b f2c2 fcbb
000000e0: cf9d 673b f91a 993b 01f0 993b 755d 363c
000000f0: 8f7a 4cbc 9e5d 70bb 16fa 9d3b 0000 0000
00000100: f62e 0a3a 2aaa ffbb bd44 023c 8db4 363c
00000110: 80d2 823c aca9 1abc 1ef9 2a3c 0000 0000
00000120: ebfc 623c fdd1 263a 1782 3a3b e016 c23c
00000130: d6f3 de3a f3db 0e3c 109e a93b 9772 2cbc
00000140: 1d88 b03c c362 453c 31d0 3ebc 7a9a af3b
00000150: 5b0d 4ebc 26a8 d03b 15f9 1f3c 0000 0000
00000160: 45b9 4cbc 26d5 04bc 7858 bfbb 6531 153c
00000170: 6328 863c 3026 b7bb 4c5c a33b 0000 0000
00000180: 7afd 23bc 0000 0000 85e2 f13b 8f1d 3c3c
00000190: b20e 08bc 2906 03bc 9854 31bc 2ce9 15bc
000001a0: 3d6f 223c b42e a23b b6f3 babb 351d c5bb
000001b0: 18b8 c4bb 3ade 36bc b714 b0bb caea ff3b
000001c0: 2e2d 4e3c 222a af3a 0000 0000 cd03 57bb
000001d0: 931c 343c dcae 4bbb e4be 013b 0000 0000
000001e0: 80e8 d3bb 82cd 29bb f3d8 933c 5c67 87bb
000001f0: 3c6e 873b b261 c139 2dab ce3b bf44 c23b
0.0 0.0015737959 -0.005544409 -0.009416003 0.0153839635 -0.002640518 0.013414273 0.0
0.0031523178 -0.004521682 -0.0017672257 0.0050944528 -0.00813658 -0.0063030035 0.003756646 0.017981505
-0.0023455967 0.014588841 0.0021935657 0.003627725 0.0075108726 0.0 0.009667465 0.007498733
0.0057514412 -0.0084498925 -0.008018063 0.0025773463 -0.0015493662 -0.017257158 0.0057093836 -0.0045546815
0.0 -0.0017013034 0.010770285 0.019475091 -0.00057843816 0.010718851 -0.005340917 -0.0072246357
-0.0023338408 -0.0014937164 -0.013756458 0.0047404356 -0.0029619972 -0.011786186 -0.0074141202 -0.0061518704
0.02087894 0.013180039 -0.009255444 0.009792283 0.003959933 -0.0173441 0.0024598753 -0.007713669
0.0035341864 0.004672405 0.0046978 0.01113068 -0.012480392 -0.0036676894 0.0048210723 0.0
0.000527128 -0.0078022676 0.007950959 0.011151445 0.015969515 -0.009439867 0.010435371 0.0
0.013854246 0.0006363688 0.0028458887 0.023692548 0.0017009925 0.008719432 0.005176313 -0.010525367
0.021549279 0.012047472 -0.011646316 0.005358991 -0.012576426 0.006367701 0.009763976 0.0
-0.012495344 -0.008107459 -0.0058394037 0.009106015 0.01637668 -0.005589269 0.004985368 0.0
-0.010009164 0.0 0.0073817396 0.011481657 -0.008304285 -0.007997074 -0.010823391 -0.009149831
0.009914217 0.004949415 -0.005705322 -0.0060154446 -0.006003391 -0.011161381 -0.005373563 0.0078099715
0.012584014 0.0013363997 0.0 -0.0032808662 0.010993141 -0.0031079566 0.0019797618 0.0
-0.006466925 -0.0025909846 0.018047785 -0.0041321944 0.004133014 0.00036884617 0.006307027 0.0059286053

sequential/dense_1/BiasAdd/ReadVariableOp f4 [3]
00000000: 9507 333b 228a d2bb 568f 9e3b
0.0027317752 -0.006425158 0.0048388643

sequential/dense/MatMul f4 [128, 128]
00000000: e05f 563c b048 0dbc 162c 1dbd a114 153e
00000010: b464 b9bd 0c4a 8b3d afa9 8cbd 605d 433d
00000020: c5b1 133e f054 b6bc 6e5c c03d d924 1c3e
00000030: 0ef4 83bd e4f3 cbbd 45e1 1b3e d80e bd3c
00000040: 3049 c23c 6027 00be e94b 183e eacf e23d
00000050: 5079 85bc 300e a2bd 1c77 f6bc 2ccd 24bd
00000060: 18fb 12be 2070 30bc ac7f 19bd fe71 dc3d
00000070: 067e d43d 3241 51bd 2c30 01be c8fa 583d
00000080: 36e9 cbbd cccb 693d 22d5 ff3d 1d69 09be
00000090: aa37 8cbd 88c2 693d cfff 15be 4df6 03be
000000a0: 701c 10be 47ea a6bd f538 0c3e dea8 fd3d
000000b0: 4a53 1ebd e854 6c3d 64fc 27bd fa3a fa3d
000000c0: d871 8cbc 9066 6ebc 4081 2d3d 88bf d83c
000000d0: 85dc 173e 1c5f 4cbd f29a 27bd 2b0b 9bbd
000000e0: 858f e8bd 100c 243c c00f abbd 6820 c33d
000000f0: 70d3 e8bd 897e ccbd 6f2c 143e 029e ee3d
00000100: 7887 e3bd b058 a4bd 8ce7 4fbd 401e 853b
00000110: 9015 2f3d 512b f5bd a2b1 bbbd 3652 813d
00000120: 749d d7bd 860e eb3d 5c3d ebbd 38a8 58bd
00000130: d40f 78bd 9072 5d3c af8c 013e ae8b ca3d
00000140: b66c b63d e8be 543d 561d d23d 8203 01bd
00000150: 890b a1bd fe32 d43d 28c7 de3c 98bb f0bd
00000160: 9cce 553d 28aa 853c 98aa a8bd 2f28 073e
00000170: 9aee b7bd a29c 78bd 5489 bd3d b0eb 193d
00000180: 02a0 a83d d866 05be 8d0a 8dbd 0b68 0c3e
00000190: e099 1b3d deb6 38bd 6ba5 81bd 0013 90ba
000001a0: 7c5a 31bd af1f b2bd 5aff f03d c017 c43d
000001b0: 9213 9fbd c26c dfbd 8abc 873d a044 893b
000001c0: 1c21 b53d 9107 a2bd efb7 073e 546c 7b3d
000001d0: 00e0 5c3b ba07 e03d 10d5 6abc 0088 deba
000001e0: c46d 29bd 6870 dabc 4039 913d a85e 0b3d
000001f0: 0212 5dbd b03f fb3c 7305 0b3e a895 50bd
00000200: 7d14 5fbe 6a50 023e 89ec 293e b53c 04be
00000210: a3d6 0bbe 905a cebc 7424 5ebd d19d 19bd
00000220: b62a ab3d 14d2 32bd 1092 2cbc 1b2e fabd
00000230: 4224 8b3d 4063 43bb fa48 eebc 2ca0 23be
00000240: 2adc b5bb aed1 9fbd 405a fbbb bb7b 283d
00000250: ca74 833d 405e 76bc 5fd4 99bd c6c2 19be
00000260: 3e86 da3d 675c 003d 65de 06be 341e 4dbe
00000270: 5a73 253e eb79 d1bd a0e5 903c ffa5 8abd
00000280: e61b ccbd 8ba5 713d 29cc 1ebd 37e2 b53a
00000290: 118a 28bd cef1 8dbc 9717 293e 41a3 2c3d
000002a0: 087d 5e3d af38 3cbe 2065 bf3b 689f 23be
000002b0: 3177 9a3d 28dc 0cbe d6d7 94bd 99ab c43d
000002c0: b910 ab3d 8cce c0bd bda7 08be 0694 3abe
000002d0: edfd 41bd 45d5 0ebe 3e65 0abe de8e 19bd
000002e0: 9a25 94bc 64e7 a93c fcfb c63d 0115 95bc
000002f0: 4dac 88bd be01 b23d 67e0 b7bd 81f1 d9bc
00000300: c0ed c03d 3b22 853c 8914 153e ca0d aabd
00000310: 18f2 d7bc 47da 963d a92d 0cbe 4c5f bcbd
00000320: dc94 033e 7b5c 913c 7079 b13c c561 123c
00000330: e7f4 1a3d 5be6 0d3e b228 b2bd 60fb d63c
00000340: f282 723d 366c 463c 2024 ac3b eff7 a5bd
00000350: cb1f ea3c 6c1c febd 0bf3 bbbd a034 6ebd
00000360: 3255 003e 621c 2dbd 72de 1abd 9adc 02be
00000370: ad73 053e 74ac 3dbd 8498 21bd 9e9d 0f3e
00000380: be56 5abe 71a3 ca3d d776 5bbd bee6 22be
00000390: 3ede 823b f21b 8dbb 6d54 053e a1f4 953c
000003a0: 577b 053e 4401 1fbd 4558 013e daa0 4abe
000003b0: 011f 96bd e0d4 f73b 8867 853d b08b 3b3d
000003c0: d630 203e 7a4d 59bd 5bbf d63d d69d a8bd
000003d0: 921c 19be a611 d33d 420e dcbb 6d14 fabd
000003e0: 28e1 04b9 3bf1 b03d 852c e93d 0413 c03d
000003f0: 6921 173e 2f4d 4dbd fb95 0b3e 1cac cdbd
0.013084382 -0.008623287 -0.03837212 0.1455865 -0.09052411 0.06801233 -0.06868302 0.04769647
0.14423282 -0.022257298 0.093926296 0.15248431 -0.06443034 -0.09958628 0.15222652 0.023078367
0.02371654 -0.1251502 0.14872707 0.11074813 -0.016293198 -0.07912862 -0.030086093 -0.04023473
-0.14353597 -0.01076892 -0.037475273 0.1076393 0.103755996 -0.051087566 -0.12616032 0.05297354
-0.09956591 0.05707912 0.12491824 -0.13419004 -0.068465546 0.057070285 -0.14648364 -0.12886925
-0.14073348 -0.081501536 0.13693602 0.123857245 -0.03865365 0.05769816 -0.041012183 0.1221828
-0.017144129 -0.01455082 0.04235959 0.026458517 0.14830215 -0.04989539 -0.04091925 -0.075704895
-0.11355499 0.010012642 -0.083526134 0.095276654 -0.113684535 -0.09985072 0.14470075 0.11651231
-0.11109823 -0.08024728 -0.05075793 0.004062444 0.042745173 -0.119711526 -0.0916474 0.063145086
-0.10528079 0.114773795 -0.11486313 -0.0528948 -0.06056197 0.013516083 0.12651323 0.09889923
0.08907454 0.051939875 0.10259502 -0.031497486 -0.07863528 0.103612885 0.027194574 -0.11754531
0.05219899 0.016316488 -0.08235663 0.13198923 -0.089810565 -0.06069625 0.09254709 0.037578285
0.08233644 -0.13027513 -0.06886778 0.13711564 0.037988544 -0.04509627 -0.06330379 -0.001099199
-0.043299183 -0.086974494 0.117674544 0.095748425 -0.077674046 -0.10909416 0.06627758 0.004189089
0.08844206 -0.079115994 0.13253759 0.061382607 0.003370285 0.10938974 -0.014333025 -0.0016977787
-0.041364446 -0.026664928 0.07090998 0.034025818 -0.05397225 0.030670017 0.13576297 -0.050923973
-0.2178516 0.12725988 0.16594137 -0.12913783 -0.13656096 -0.025189668 -0.054233983 -0.03750402
0.08357756 -0.043657377 -0.010532871 -0.12215825 0.06794025 -0.0029813796 -0.029087532 -0.1597907
-0.0055499272 -0.07803665 -0.0076706707 0.041133624 0.0641876 -0.015037119 -0.0751121 -0.15015706
0.10670136 0.03133812 -0.13170774 -0.20031053 0.16157284 -0.10228332 0.017687619 -0.067699425
-0.09966259 0.058995765 -0.03876892 0.0013876621 -0.041147295 -0.017327216 0.16512905 0.04214788
0.054318458 -0.18380998 0.0058409125 -0.15978777 0.07542265 -0.13755858 -0.0726773 0.09603042
0.08352799 -0.09414396 -0.13345237 -0.18220529 -0.047361303 -0.13948543 -0.13515183 -0.037489764
-0.018084336 0.020740218 0.09716031 -0.018198492 -0.06673489 0.086917385 -0.08978348 -0.026604416
0.09420347 0.016251674 0.14558615 -0.08303411 -0.026360556 0.07365852 -0.13689293 -0.09197864
0.12849754 0.017744293 0.021664351 0.008934443 0.037831213 0.13857405 -0.08699168 0.026242912
0.05920691 0.01211076 0.00525333 -0.0810393 0.028579613 -0.12407765 -0.09177216 -0.058155656
0.125325 -0.042263396 -0.037809797 -0.12779465 0.13032408 -0.046307042 -0.03945209 0.1402497
-0.21322152 0.09894455 -0.05358013 -0.15908334 0.0039937785 -0.00430631 0.13020487 0.018305125
0.13035332 -0.038819566 0.12631328 -0.19787923 -0.07330132 0.0075632185 0.06513888 0.045787513
0.1564363 -0.053052403 0.10485717 -0.0823323 -0.14952305 0.103061005 -0.006715567 -0.12210927
-0.00012672378 0.08639761 0.113854446 0.09378627 0.14758839 -0.050122436 0.13631432 -0.10042593

sequential/dense_1/MatMul f4 [3, 128]
00000000: 6a3c e2bd f9c2 25be 8571 ed3d 2482 27be
00000010: ff61 2b3e 067c 053e 5ec5 4f3e 69a2 1e3e
00000020: 5027 5a3e ff58 493e 4c8f 59be f0b7 f5bb
00000030: febf 7e3d af13 06bd 3827 543e 6eb7 3e3e
00000040: 9136 34bd 9f87 1f3e af25 633e 0a13 18be
00000050: 06e8 7fbe c0c5 8dbd 27a8 c83d 3ad0 98bd
00000060: 35b1 34bd 2dd2 f13d 8f14 38be a7a9 343d
00000070: 538f 6dbd 9360 09be 61b2 ddbd 9b23 013e
00000080: dc11 523d fb58 543d c3c9 103e a0ac 293e
00000090: 4c1e 45bd cdfd f4bd ad10 093e 5dd0 eabd
000000a0: 3f7b 68be bc83 17be 02cd 52bd 5d13 393e
000000b0: 4e42 d13d e63b 2ebe 5ef7 98bc 6e65 4f3e
000000c0: f25c 643e 326e 20be d477 353e 012c babd
000000d0: af0f babc fa54 143e 3da1 773e a8f3 adbb
000000e0: ba24 e4bd c09f 1b3d 57b1 09be b81a 61bd
000000f0: 1b0a 2ebe b3b6 033d f58d 043d b474 0d3d
00000100: 90e7 c5bb 124b cc3c c248 0bbe 7cc2 60be
00000110: dc05 78be 8aa3 f43b b1ac 6b3e b0b7 6c3c
00000120: 3785 793e b20d 19bb d53f 323e 0f83 143e
00000130: ab0d 2bbe 20c0 af3c a4e4 0e3e f5ba df3c
00000140: 2cf2 83be 634d 94bd ced5 42bd c829 243e
00000150: 6f34 14be 41f9 7abe aca4 223e 1c58 41bd
00000160: 62d7 a7bd 1d86 f1bb 8ede 51bd 326a 21be
00000170: 9077 7dbe 4bbb 2dbe 1e71 cf3b 8049 93ba
00000180: ae58 d33d 7488 1e3d 6f1a 353d fb15 08be
00000190: ec77 5e3e 02a7 59be 9a37 783d 6436 1cbe
000001a0: 5711 61be 0165 8ebd 2252 3ebe d7f6 2c3d
000001b0: 3e1b 52bd 3a05 cdbd af5b d4bd 6047 a13c
000001c0: 335d 813d d01f 04be 5009 0fbe ab05 2bbe
000001d0: fe2c f2bd 0fa7 e23d a519 60be c806 4ebd
000001e0: 4948 113e ed3e 3fbe 6284 d9bd b5fe 123e
000001f0: 4b64 2abd f0c9 48be 54c7 47be c73e 053e
00000200: b894 e8bd d454 7b3e 58db b03d b545 e23c
00000210: f67a 883d 0f47 8ebd 312e 1f3e 38aa c93c
00000220: 19f1 aebd 50bf 493d 84b8 bcbd 4bbb 013d
00000230: 443d d9bd 7b4c 24be beee 72be 3f5b 213e
00000240: 5a28 0e3e 295a f03c 26af a7bd 71ab c4bd
00000250: 1448 513c 4021 463c fe75 2cbe 5f9e eb3d
00000260: 107d 20be 5ffc f63d 7bdb 553d f2b5 dbbd
00000270: 22c5 debc 0e6f d83d 5379 ce3d 3ca7 d23b
00000280: a1e8 363e c220 6cbe f348 52bd c8b0 74be
00000290: 4254 3cbe 3740 7a3e 9acc debc bfa3 043e
000002a0: e953 80bd 76dd 193e d05d 47bb 196a 29be
000002b0: 53b9 a13d 605c fbbc bf46 553d 2fde 043e
000002c0: cf35 f2bd e48e 6abe 6848 bc3d e542 3b3e
000002d0: a8b2 453c e19b 163e 1056 00be c553 16bd
000002e0: 9045 87bd 404e cc3c 6929 5c3e 1be5 53be
000002f0: b66d 293e 7d57 2a3b cdda bcbd b057 40bc
00000300: 76aa 2a3e 038a 413e fe3d 3dbd dc4e 893d
00000310: 2ba9 033e a0e5 613d cd8f 0cbd d89a 4bbd
00000320: d01b 5fbe 18cc 983d f8f4 8e3d d7be 62be
00000330: 4cbd ff3d 661b cc3d 3d37 403e 8442 183e
00000340: c88c 1d3e 4833 1fbe 440a 5ebe 9ffd f03d
00000350: a2af 273e 3a29 2c3d 46b4 03be f267 863d
00000360: 39a9 68bc be6f 933d 5ff4 18be e900 033e
00000370: fa23 1e3e 9e57 ccbd 71a7 933d 9478 e0bd
00000380: 63a1 0c3e fe53 903d a85c 5dbe e3aa 74be
00000390: cf86 f4bd d1e1 233c e694 33bd f589 bcbc
000003a0: 9272 5a3e 40f9 6d3e 7159 08be a52d ab3d
000003b0: d1a0 2dbd 39de b2bd 8030 443e e0d9 133e
000003c0: b729 a4bd 8087 1a3d ccbd 493d 3396 85bd
000003d0: 49c7 31bc 2d6d 4f3c 9700 4fbd 948d 9cbd
000003e0: a4a2 283e d4d4 333e 20e8 103e 6eb7 0e3e
000003f0: 765b e4bd 61b2 97bd 59e8 14be e84a 743d
-0.11046679 -0.16187657 0.11593918 -0.16358238 0.16736601 0.13035592 0.20290133 0.15491642
0.21304059 0.19662856 -0.2124607 -0.0074987337 0.062194817 -0.032733615 0.20718086 0.1862466
-0.04399735 0.15579079 0.22182344 -0.14851013 -0.24990854 -0.069224834 0.097976975 -0.07461591
-0.04411431 0.11807666 -0.17976592 0.044107106 -0.057998013 -0.13415746 -0.10825039 0.12611239
0.051286563 0.05184267 0.14139466 0.16569757 -0.048124596 -0.11962471 0.13385268 -0.114655234
-0.22703265 -0.14796346 -0.051465042 0.18073793 0.10217725 -0.17015037 -0.018672641 0.20253536
0.22301081 -0.15667036 0.17721492 -0.09090424 -0.022712557 0.14485541 0.24182601 -0.005308587
-0.111398175 0.037994146 -0.13446556 -0.05495712 -0.16996042 0.032156657 0.032361943 0.034535125
-0.0060395673 0.02493814 -0.13601974 -0.2194919 -0.24220985 0.0074657844 0.23015095 0.014448091
0.24367224 -0.002335411 0.17407162 0.1450312 -0.16704433 0.021453917 0.13954407 0.027310828
-0.257707 -0.07241323 -0.04756718 0.16031563 -0.14473127 -0.24509145 0.1588313 -0.04720317
-0.08195378 -0.007370724 -0.051237635 -0.15763167 -0.2475264 -0.16965978 0.0063306233 -0.0011237115
0.10319649 0.03870435 0.044214662 -0.13289635 0.21725434 -0.21255115 0.0605999 -0.15255123
-0.21979271 -0.06952859 -0.18586019 0.042227592 -0.05129551 -0.100107625 -0.1036905 0.019687355
0.063166045 -0.1290276 -0.13968396 -0.16701381 -0.11824988 0.1106702 -0.21884783 -0.050299436
0.14187731 -0.18676348 -0.10620953 0.14354976 -0.041599553 -0.19608283 -0.19509631 0.13012229
-0.11356491 0.24544078 0.086355865 0.02762113 0.06664078 -0.06947147 0.15544964 0.0246173
-0.085420795 0.049254715 -0.09214881 0.031672757 -0.106073886 -0.160448 -0.23723885 0.15757464
0.1388258 0.029339867 -0.08187704 -0.09603012 0.012773532 0.012092888 -0.16841885 0.11504816
-0.15672708 0.12059855 0.052211266 -0.10728063 -0.02719361 0.10568057 0.100817345 0.0064286273
0.17862178 -0.23059371 -0.0513391 -0.23895562 -0.18391517 0.24438559 -0.027197171 0.12953089
-0.062660046 0.15025887 -0.0030420907 -0.1654438 0.07896676 -0.030683696 0.05206942 0.12975381
-0.118266694 -0.22906071 0.09193498 0.18287237 0.012066521 0.147079 -0.1253283 -0.036700983
-0.06605065 0.024939656 0.21500172 -0.20692866 0.16545758 0.0025992088 -0.092214204 -0.011739656
0.16666588 0.18900304 -0.0462017 0.06704494 0.12857501 0.055150628 -0.034316827 -0.049708217
-0.21787953 0.07460803 0.06980318 -0.22143112 0.124872774 0.09966163 0.18771072 0.14869124
0.15385735 -0.15546906 -0.21683604 0.117671244 0.16375592 0.042031504 -0.12861738 0.06562795
-0.014200502 0.071990475 -0.1493697 0.12793316 0.15443411 -0.09977649 0.07209671 -0.109604985
0.13733439 0.0704727 -0.21617377 -0.23893313 -0.11939775 0.010002569 -0.043843172 -0.023015002
0.21332768 0.23239613 -0.13315369 0.083583154 -0.042389695 -0.08733792 0.19159126 0.14438581
-0.08015769 0.03772688 0.04925327 -0.06522789 -0.010850736 0.012660307 -0.050537672 -0.076441914
0.16468292 0.17561656 0.14151049 0.1393716 -0.11150257 -0.0740707 -0.14541759 0.05964175
